…
      device_id: 1
      type: "StreamExecutor"
      strength: 1
    }
    link {
      device_id: 2
      type: "StreamExecutor"
      strength: 1
    }
  }
}
incarnation: 13926332528883805654
physical_device_desc: "device: 3, name: Tesla V100-SXM2-16GB, pci bus id: 0000:b2:00.0, compute capability: 7.0"
]
Using 2000 training images
BasicCNN model built as child model.
 Model summary:
_________________________________________________________________
Layer (type)                 Output Shape              Param #   
=================================================================
conv2d_1 (Conv2D)            (None, 32, 32, 32)        896       
_________________________________________________________________
activation_1 (Activation)    (None, 32, 32, 32)        0         
_________________________________________________________________
conv2d_2 (Conv2D)            (None, 30, 30, 32)        9248      
_________________________________________________________________
activation_2 (Activation)    (None, 30, 30, 32)        0         
_________________________________________________________________
max_pooling2d_1 (MaxPooling2 (None, 15, 15, 32)        0         
_________________________________________________________________
dropout_1 (Dropout)          (None, 15, 15, 32)        0         
_________________________________________________________________
conv2d_3 (Conv2D)            (None, 15, 15, 64)        18496     
_________________________________________________________________
activation_3 (Activation)    (None, 15, 15, 64)        0         
_________________________________________________________________
conv2d_4 (Conv2D)            (None, 13, 13, 64)        36928     
_________________________________________________________________
activation_4 (Activation)    (None, 13, 13, 64)        0         
_________________________________________________________________
max_pooling2d_2 (MaxPooling2 (None, 6, 6, 64)          0         
_________________________________________________________________
dropout_2 (Dropout)          (None, 6, 6, 64)          0         
_________________________________________________________________
flatten_1 (Flatten)          (None, 2304)              0         
_________________________________________________________________
dense_1 (Dense)              (None, 512)               1180160   
_________________________________________________________________
activation_5 (Activation)    (None, 512)               0         
_________________________________________________________________
dropout_3 (Dropout)          (None, 512)               0         
_________________________________________________________________
dense_2 (Dense)              (None, 10)                5130      
_________________________________________________________________
activation_6 (Activation)    (None, 10)                0         
=================================================================
Total params: 1,250,858
Trainable params: 1,250,858
Non-trainable params: 0
_________________________________________________________________
None
load_pre_augment_weights()'s runtime:  0.0546 sec.
Train on 12000 samples, validate on 1000 samples
Epoch 1/10
 - 4s - loss: 2.0640 - acc: 0.2361 - val_loss: 1.8310 - val_acc: 0.3480
…
